scoresense/web/model.tflite (tflite, 1264 bytes, 1 tensors)

sequential_1/dense_1/MatMul f4 [1, 41]
000000 77 2e de 3d 0a a8 61 be 89 7a 48 3e e9 52 84 be
       0.10848706 -0.22036758 0.19577993 -0.25844505
000010 ed d3 2b 3e bf 76 11 bd ef 73 f4 3e 7c 59 18 be
       0.16780062 -0.035513636 0.477447 -0.14877886
000020 86 ce 47 3e 43 44 5e 3e 55 df d5 bc e0 32 c4 3e
       0.19512376 0.21705727 -0.02610747 0.38320065
000030 d9 1c df bd e8 2d eb 3e 25 04 b4 bb 91 b7 98 3b
       -0.10894174 0.4593346 -0.005493658 0.0046605547
000040 4d 73 70 bd 56 69 d2 bd df be 1a 3d f5 ac 2f 3e
       -0.05870371 -0.102739975 0.037779685 0.17155822
000050 12 5a 01 3d c9 0b cf 3d 91 3a dd 3c 70 82 3a be
       0.03158004 0.1010967 0.027005466 -0.1821382
000060 a0 82 73 3e 2c 2e cb bd df b9 1d 3d 52 02 89 3e
       0.23780298 -0.09920916 0.03850734 0.26759583
000070 ec 68 80 bd 29 a0 9f bd 3d a5 c7 3e e5 ef f9 bd
       -0.06270012 -0.0779422 0.38993254 -0.122039594
000080 54 d4 a1 3e 8c c2 04 bd 5b 67 af 3e 88 2f 32 3e
       0.31607306 -0.032412097 0.3425854 0.17400944
000090 69 49 c6 3d 81 55 fe bd 50 a3 55 3e b8 c2 ad 3e
       0.096819706 -0.12418652 0.2086308 0.3393762
0000a0 12 4d b5 3d
       0.088525906
